…
I0418 00:05:56.680737  6378 net.cpp:339] The NetState phase (0) differed from the phase (1) specified by a rule in layer accuracy
I0418 00:05:56.680948  6378 net.cpp:50] Initializing net from parameters: 
name: "CaffeNet"
state {
  phase: TRAIN
}
layer {
  name: "data"
  type: "Data"
  top: "data"
  top: "label"
  include {
    phase: TRAIN
  }
  transform_param {
    mirror: true
    crop_size: 227
    mean_file: "/home/ghanghas.s/deeplearning/input/mean.binaryproto"
  }
  data_param {
    source: "/home/ghanghas.s/deeplearning/input/train_lmdb"
    batch_size: 256
    backend: LMDB
  }
}
layer {
  name: "conv1"
  type: "Convolution"
  bottom: "data"
  top: "conv1"
  param {
    lr_mult: 1
    decay_mult: 1
  }
  param {
    lr_mult: 2
    decay_mult: 0
  }
  convolution_param {
    num_output: 192
    kernel_size: 11
    stride: 4
    weight_filler {
      type: "gaussian"
      std: 0.01
    }
    bias_filler {
      type: "constant"
      value: 0
    }
  }
}
layer {
  name: "relu1"
  type: "ReLU"
  bottom: "conv1"
  top: "conv1"
}
layer {
  name: "pool1"
  type: "Pooling"
  bottom: "conv1"
  top: "pool1"
  pooling_param {
    pool: MAX
    kernel_size: 3
    stride: 2
  }
}
layer {
  name: "norm1"
  type: "LRN"
  bottom: "pool1"
  top: "norm1"
  lrn_param {
    local_size: 5
    alpha: 0.0001
    beta: 0.75
  }
}
layer {
  name: "conv2"
  type: "Convolution"
  bottom: "norm1"
  top: "conv2"
  param {
    lr_mult: 1
    decay_mult: 1
  }
  param {
    lr_mult: 2
    decay_mult: 0
  }
  convolution_param {
    num_output: 384
    pad: 2
    kernel_size: 5
    group: 2
    weight_filler {
      type: "gaussian"
      std: 0.01
    }
    bias_filler {
      type: "constant"
      value: 1
    }
  }
}
layer {
  name: "relu2"
  type: "ReLU"
  bottom: "conv2"
  top: "conv2"
}
layer {
  name: "pool2"
  type: "Pooling"
  bottom: "conv2"
  top: "pool2"
  pooling_param {
    pool: MAX
    kernel_size: 3
    stride: 2
  }
}
layer {
  name: "norm2"
  type: "LRN"
  bottom: "pool2"
  top: "norm2"
  lrn_param {
    local_size: 5
    alpha: 0.0001
    beta: 0.75
  }
}
layer {
  name: "conv3"
  type: "Convolution"
  bottom: "norm2"
  top: "conv3"
  param {
    lr_mult: 1
    decay_mult: 1
  }
  param {
    lr_mult: 2
    decay_mult: 0
  }
  convolution_param {
    num_output: 384
    pad: 1
    kernel_size: 3
    weight_filler {
      type: "gaussian"
      std: 0.01
    }
    bias_filler {
      type: "constant"
      value: 0
    }
  }
}
layer {
  name: "relu3"
  type: "ReLU"
  bottom: "conv3"
  top: "conv3"
}
layer {
  name: "conv4"
  type: "Convolution"
  bottom: "conv3"
  top: "conv4"
  param {
    lr_mult: 1
    decay_mult: 1
  }
  param {
    lr_mult: 2
    decay_mult: 0
  }
  convolution_param {
    num_output: 384
    pad: 1
    kernel_size: 3
    group: 2
    weight_filler {
      type: "gaussian"
      std: 0.01
    }
    bias_filler {
      type: "constant"
      value: 1
    }
  }
}
layer {
  name: "relu4"
  type: "ReLU"
  bottom: "conv4"
  top: "conv4"
}
layer {
  name: "conv5"
  type: "Convolution"
  bottom: "conv4"
  top: "conv5"
  param {
    lr_mult: 1
    decay_mult: 1
  }
  param {
    lr_mult: 2
    decay_mult: 0
  }
  convolution_param {
    num_output: 256
    pad: 1
    kernel_size: 3
    group: 2
    weight_filler {
      type: "gaussian"
      std: 0.01
    }
    bias_filler {
      type: "constant"
      value: 1
    }
  }
}
layer {
  name: "relu5"
  type: "ReLU"
  bottom: "conv5"
  top: "conv5"
}
layer {
  name: "pool5"
  type: "Pooling"
  bottom: "conv5"
  top: "pool5"
  pooling_param {
    pool: MAX
    kernel_size: 3
    stride: 2
  }
}
layer {
  name: "fc6"
  type: "InnerProduct"
  bottom: "pool5"
  top: "fc6"
  param {
    lr_mult: 1
    decay_mult: 1
  }
  param {
    lr_mult: 2
    decay_mult: 0
  }
  inner_product_param {
    num_output: 4096
    weight_filler {
      type: "gaussian"
      std: 0.005
    }
    bias_filler {
      type: "constant"
      value: 1
    }
  }
}
layer {
  name: "relu6"
  type: "ReLU"
  bottom: "fc6"
  top: "fc6"
}
layer {
  name: "drop6"
  type: "Dropout"
  bottom: "fc6"
  top: "fc6"
  dropout_param {
    dropout_ratio: 0.5
  }
}
layer {
  name: "fc7"
  type: "InnerProduct"
  bottom: "fc6"
  top: "fc7"
  param {
    lr_mult: 1
    decay_mult: 1
  }
  param {
    lr_mult: 2
    decay_mult: 0
  }
  inner_product_param {
    num_output: 4096
    weight_filler {
      type: "gaussian"
      std: 0.005
    }
    bias_filler {
      type: "constant"
      value: 1
    }
  }
}
layer {
  name: "relu7"
  type: "ReLU"
  bottom: "fc7"
  top: "fc7"
}
layer {
  name: "drop7"
  type: "Dropout"
  bottom: "fc7"
  top: "fc7"
  dropout_param {
    dropout_ratio: 0.5
  }
}
layer {
  name: "fc8"
  type: "InnerProduct"
  bottom: "fc7"
  top: "fc8"
  param {
    lr_mult: 1
    decay_mult: 1
  }
  param {
    lr_mult: 2
    decay_mult: 0
  }
  inner_product_param {
    num_output: 2
    weight_filler {
      type: "gaussian"
      std: 0.01
    }
    bias_filler {
      type: "constant"
      value: 0
    }
  }
}
layer {
  name: "loss"
  type: "SoftmaxWithLoss"
  bottom: "fc8"
  bottom: "label"
  top: "loss"
}
I0418 00:05:56.681149  6378 layer_factory.hpp:76] Creating layer data
I0418 00:05:56.681938  6378 net.cpp:110] Creating Layer data
I0418 00:05:56.681957  6378 net.cpp:433] data -> data
I0418 00:05:56.682073  6378 net.cpp:433] data -> label
I0418 00:05:56.682098  6378 data_transformer.cpp:23] Loading mean file from: /home/ghanghas.s/deeplearning/input/mean.binaryproto
I0418 00:05:56.687480  6451 db_lmdb.cpp:22] Opened lmdb /home/ghanghas.s/deeplearning/input/train_lmdb
I0418 00:05:56.717576  6378 data_layer.cpp:44] output data size: 256,3,227,227
I0418 00:05:56.980541  6378 net.cpp:155] Setting up data
I0418 00:05:56.980628  6378 net.cpp:163] Top shape: 256 3 227 227 (39574272)
I0418 00:05:56.980638  6378 net.cpp:163] Top shape: 256 (256)
I0418 00:05:56.980650  6378 layer_factory.hpp:76] Creating layer conv1
I0418 00:05:56.980672  6378 net.cpp:110] Creating Layer conv1
I0418 00:05:56.980681  6378 net.cpp:477] conv1 <- data
I0418 00:05:56.980705  6378 net.cpp:433] conv1 -> conv1
I0418 00:05:57.385782  6378 net.cpp:155] Setting up conv1
I0418 00:05:57.385809  6378 net.cpp:163] Top shape: 256 192 55 55 (148684800)
I0418 00:05:57.385849  6378 layer_factory.hpp:76] Creating layer relu1
I0418 00:05:57.385864  6378 net.cpp:110] Creating Layer relu1
I0418 00:05:57.385870  6378 net.cpp:477] relu1 <- conv1
I0418 00:05:57.385879  6378 net.cpp:419] relu1 -> conv1 (in-place)
I0418 00:05:57.386016  6378 net.cpp:155] Setting up relu1
I0418 00:05:57.386028  6378 net.cpp:163] Top shape: 256 192 55 55 (148684800)
I0418 00:05:57.386032  6378 layer_factory.hpp:76] Creating layer pool1
I0418 00:05:57.386046  6378 net.cpp:110] Creating Layer pool1
I0418 00:05:57.386051  6378 net.cpp:477] pool1 <- conv1
I0418 00:05:57.386059  6378 net.cpp:433] pool1 -> pool1
I0418 00:05:57.386309  6378 net.cpp:155] Setting up pool1
I0418 00:05:57.386322  6378 net.cpp:163] Top shape: 256 192 27 27 (35831808)
I0418 00:05:57.386327  6378 layer_factory.hpp:76] Creating layer norm1
I0418 00:05:57.386358  6378 net.cpp:110] Creating Layer norm1
I0418 00:05:57.386376  6378 net.cpp:477] norm1 <- pool1
I0418 00:05:57.386391  6378 net.cpp:433] norm1 -> norm1
I0418 00:05:57.386425  6378 net.cpp:155] Setting up norm1
I0418 00:05:57.386464  6378 net.cpp:163] Top shape: 256 192 27 27 (35831808)
I0418 00:05:57.386471  6378 layer_factory.hpp:76] Creating layer conv2
I0418 00:05:57.386482  6378 net.cpp:110] Creating Layer conv2
I0418 00:05:57.386487  6378 net.cpp:477] conv2 <- norm1
I0418 00:05:57.386495  6378 net.cpp:433] conv2 -> conv2
I0418 00:05:57.421970  6378 net.cpp:155] Setting up conv2
I0418 00:05:57.421991  6378 net.cpp:163] Top shape: 256 384 27 27 (71663616)
I0418 00:05:57.422006  6378 layer_factory.hpp:76] Creating layer relu2
I0418 00:05:57.422016  6378 net.cpp:110] Creating Layer relu2
I0418 00:05:57.422021  6378 net.cpp:477] relu2 <- conv2
I0418 00:05:57.422029  6378 net.cpp:419] relu2 -> conv2 (in-place)
I0418 00:05:57.422149  6378 net.cpp:155] Setting up relu2
I0418 00:05:57.422159  6378 net.cpp:163] Top shape: 256 384 27 27 (71663616)
I0418 00:05:57.422165  6378 layer_factory.hpp:76] Creating layer pool2
I0418 00:05:57.422174  6378 net.cpp:110] Creating Layer pool2
I0418 00:05:57.422179  6378 net.cpp:477] pool2 <- conv2
I0418 00:05:57.422188  6378 net.cpp:433] pool2 -> pool2
I0418 00:05:57.422410  6378 net.cpp:155] Setting up pool2
I0418 00:05:57.422421  6378 net.cpp:163] Top shape: 256 384 13 13 (16613376)
I0418 00:05:57.422426  6378 layer_factory.hpp:76] Creating layer norm2
I0418 00:05:57.422437  6378 net.cpp:110] Creating Layer norm2
I0418 00:05:57.422442  6378 net.cpp:477] norm2 <- pool2
I0418 00:05:57.422449  6378 net.cpp:433] norm2 -> norm2
I0418 00:05:57.422459  6378 net.cpp:155] Setting up norm2
I0418 00:05:57.422466  6378 net.cpp:163] Top shape: 256 384 13 13 (16613376)
I0418 00:05:57.422471  6378 layer_factory.hpp:76] Creating layer conv3
I0418 00:05:57.422480  6378 net.cpp:110] Creating Layer conv3
I0418 00:05:57.422484  6378 net.cpp:477] conv3 <- norm2
I0418 00:05:57.422492  6378 net.cpp:433] conv3 -> conv3
I0418 00:05:57.471720  6378 net.cpp:155] Setting up conv3
I0418 00:05:57.471740  6378 net.cpp:163] Top shape: 256 384 13 13 (16613376)
I0418 00:05:57.471755  6378 layer_factory.hpp:76] Creating layer relu3
I0418 00:05:57.471766  6378 net.cpp:110] Creating Layer relu3
I0418 00:05:57.471771  6378 net.cpp:477] relu3 <- conv3
I0418 00:05:57.471781  6378 net.cpp:419] relu3 -> conv3 (in-place)
I0418 00:05:57.472015  6378 net.cpp:155] Setting up relu3
I0418 00:05:57.472026  6378 net.cpp:163] Top shape: 256 384 13 13 (16613376)
I0418 00:05:57.472031  6378 layer_factory.hpp:76] Creating layer conv4
I0418 00:05:57.472044  6378 net.cpp:110] Creating Layer conv4
I0418 00:05:57.472050  6378 net.cpp:477] conv4 <- conv3
I0418 00:05:57.472061  6378 net.cpp:433] conv4 -> conv4
I0418 00:05:57.497690  6378 net.cpp:155] Setting up conv4
I0418 00:05:57.497704  6378 net.cpp:163] Top shape: 256 384 13 13 (16613376)
I0418 00:05:57.497714  6378 layer_factory.hpp:76] Creating layer relu4
I0418 00:05:57.497722  6378 net.cpp:110] Creating Layer relu4
I0418 00:05:57.497727  6378 net.cpp:477] relu4 <- conv4
I0418 00:05:57.497736  6378 net.cpp:419] relu4 -> conv4 (in-place)
I0418 00:05:57.497872  6378 net.cpp:155] Setting up relu4
I0418 00:05:57.497881  6378 net.cpp:163] Top shape: 256 384 13 13 (16613376)
I0418 00:05:57.497887  6378 layer_factory.hpp:76] Creating layer conv5
I0418 00:05:57.497900  6378 net.cpp:110] Creating Layer conv5
I0418 00:05:57.497905  6378 net.cpp:477] conv5 <- conv4
I0418 00:05:57.497915  6378 net.cpp:433] conv5 -> conv5
I0418 00:05:57.515542  6378 net.cpp:155] Setting up conv5
I0418 00:05:57.515553  6378 net.cpp:163] Top shape: 256 256 13 13 (11075584)
I0418 00:05:57.515568  6378 layer_factory.hpp:76] Creating layer relu5
I0418 00:05:57.515578  6378 net.cpp:110] Creating Layer relu5
I0418 00:05:57.515583  6378 net.cpp:477] relu5 <- conv5
I0418 00:05:57.515590  6378 net.cpp:419] relu5 -> conv5 (in-place)
I0418 00:05:57.515733  6378 net.cpp:155] Setting up relu5
I0418 00:05:57.515743  6378 net.cpp:163] Top shape: 256 256 13 13 (11075584)
I0418 00:05:57.515748  6378 layer_factory.hpp:76] Creating layer pool5
I0418 00:05:57.515758  6378 net.cpp:110] Creating Layer pool5
I0418 00:05:57.515763  6378 net.cpp:477] pool5 <- conv5
I0418 00:05:57.515795  6378 net.cpp:433] pool5 -> pool5
I0418 00:05:57.516049  6378 net.cpp:155] Setting up pool5
I0418 00:05:57.516060  6378 net.cpp:163] Top shape: 256 256 6 6 (2359296)
I0418 00:05:57.516065  6378 layer_factory.hpp:76] Creating layer fc6
I0418 00:05:57.516088  6378 net.cpp:110] Creating Layer fc6
I0418 00:05:57.516106  6378 net.cpp:477] fc6 <- pool5
I0418 00:05:57.516131  6378 net.cpp:433] fc6 -> fc6
I0418 00:05:58.894145  6378 net.cpp:155] Setting up fc6
I0418 00:05:58.894174  6378 net.cpp:163] Top shape: 256 4096 (1048576)
I0418 00:05:58.894187  6378 layer_factory.hpp:76] Creating layer relu6
I0418 00:05:58.894201  6378 net.cpp:110] Creating Layer relu6
I0418 00:05:58.894207  6378 net.cpp:477] relu6 <- fc6
I0418 00:05:58.894219  6378 net.cpp:419] relu6 -> fc6 (in-place)
I0418 00:05:58.894424  6378 net.cpp:155] Setting up relu6
I0418 00:05:58.894435  6378 net.cpp:163] Top shape: 256 4096 (1048576)
I0418 00:05:58.894441  6378 layer_factory.hpp:76] Creating layer drop6
I0418 00:05:58.894456  6378 net.cpp:110] Creating Layer drop6
I0418 00:05:58.894461  6378 net.cpp:477] drop6 <- fc6
I0418 00:05:58.894469  6378 net.cpp:419] drop6 -> fc6 (in-place)
I0418 00:05:58.894482  6378 net.cpp:155] Setting up drop6
I0418 00:05:58.894489  6378 net.cpp:163] Top shape: 256 4096 (1048576)
I0418 00:05:58.894493  6378 layer_factory.hpp:76] Creating layer fc7
I0418 00:05:58.894505  6378 net.cpp:110] Creating Layer fc7
I0418 00:05:58.894510  6378 net.cpp:477] fc7 <- fc6
I0418 00:05:58.894517  6378 net.cpp:433] fc7 -> fc7
I0418 00:05:59.510300  6378 net.cpp:155] Setting up fc7
I0418 00:05:59.510329  6378 net.cpp:163] Top shape: 256 4096 (1048576)
I0418 00:05:59.510341  6378 layer_factory.hpp:76] Creating layer relu7
I0418 00:05:59.510354  6378 net.cpp:110] Creating Layer relu7
I0418 00:05:59.510361  6378 net.cpp:477] relu7 <- fc7
I0418 00:05:59.510371  6378 net.cpp:419] relu7 -> fc7 (in-place)
I0418 00:05:59.510753  6378 net.cpp:155] Setting up relu7
I0418 00:05:59.510766  6378 net.cpp:163] Top shape: 256 4096 (1048576)
I0418 00:05:59.510772  6378 layer_factory.hpp:76] Creating layer drop7
I0418 00:05:59.510782  6378 net.cpp:110] Creating Layer drop7
I0418 00:05:59.510787  6378 net.cpp:477] drop7 <- fc7
I0418 00:05:59.510795  6378 net.cpp:419] drop7 -> fc7 (in-place)
I0418 00:05:59.510805  6378 net.cpp:155] Setting up drop7
I0418 00:05:59.510812  6378 net.cpp:163] Top shape: 256 4096 (1048576)
I0418 00:05:59.510817  6378 layer_factory.hpp:76] Creating layer fc8
I0418 00:05:59.510828  6378 net.cpp:110] Creating Layer fc8
I0418 00:05:59.510831  6378 net.cpp:477] fc8 <- fc7
I0418 00:05:59.510845  6378 net.cpp:433] fc8 -> fc8
I0418 00:05:59.511764  6378 net.cpp:155] Setting up fc8
I0418 00:05:59.511778  6378 net.cpp:163] Top shape: 256 2 (512)
I0418 00:05:59.511788  6378 layer_factory.hpp:76] Creating layer loss
I0418 00:05:59.511801  6378 net.cpp:110] Creating Layer loss
I0418 00:05:59.511806  6378 net.cpp:477] loss <- fc8
I0418 00:05:59.511812  6378 net.cpp:477] loss <- label
I0418 00:05:59.511821  6378 net.cpp:433] loss -> loss
I0418 00:05:59.511837  6378 layer_factory.hpp:76] Creating layer loss
I0418 00:05:59.512030  6378 net.cpp:155] Setting up loss
…
I0418 00:05:59.513308  6378 net.cpp:339] The NetState phase (1) differed from the phase (0) specified by a rule in layer data
I0418 00:05:59.513526  6378 net.cpp:50] Initializing net from parameters: 
name: "CaffeNet"
state {
  phase: TEST
}
layer {
  name: "data"
  type: "Data"
  top: "data"
  top: "label"
  include {
    phase: TEST
  }
  transform_param {
    mirror: false
    crop_size: 227
    mean_file: "/home/ghanghas.s/deeplearning/input/mean.binaryproto"
  }
  data_param {
    source: "/home/ghanghas.s/deeplearning/input/validation_lmdb"
    batch_size: 50
    backend: LMDB
  }
}
layer {
  name: "conv1"
  type: "Convolution"
  bottom: "data"
  top: "conv1"
  param {
    lr_mult: 1
    decay_mult: 1
  }
  param {
    lr_mult: 2
    decay_mult: 0
  }
  convolution_param {
    num_output: 192
    kernel_size: 11
    stride: 4
    weight_filler {
      type: "gaussian"
      std: 0.01
    }
    bias_filler {
      type: "constant"
      value: 0
    }
  }
}
layer {
  name: "relu1"
  type: "ReLU"
  bottom: "conv1"
  top: "conv1"
}
layer {
  name: "pool1"
  type: "Pooling"
  bottom: "conv1"
  top: "pool1"
  pooling_param {
    pool: MAX
    kernel_size: 3
    stride: 2
  }
}
layer {
  name: "norm1"
  type: "LRN"
  bottom: "pool1"
  top: "norm1"
  lrn_param {
    local_size: 5
    alpha: 0.0001
    beta: 0.75
  }
}
layer {
  name: "conv2"
  type: "Convolution"
  bottom: "norm1"
  top: "conv2"
  param {
    lr_mult: 1
    decay_mult: 1
  }
  param {
    lr_mult: 2
    decay_mult: 0
  }
  convolution_param {
    num_output: 384
    pad: 2
    kernel_size: 5
    group: 2
    weight_filler {
      type: "gaussian"
      std: 0.01
    }
    bias_filler {
      type: "constant"
      value: 1
    }
  }
}
layer {
  name: "relu2"
  type: "ReLU"
  bottom: "conv2"
  top: "conv2"
}
layer {
  name: "pool2"
  type: "Pooling"
  bottom: "conv2"
  top: "pool2"
  pooling_param {
    pool: MAX
    kernel_size: 3
    stride: 2
  }
}
layer {
  name: "norm2"
  type: "LRN"
  bottom: "pool2"
  top: "norm2"
  lrn_param {
    local_size: 5
    alpha: 0.0001
    beta: 0.75
  }
}
layer {
  name: "conv3"
  type: "Convolution"
  bottom: "norm2"
  top: "conv3"
  param {
    lr_mult: 1
    decay_mult: 1
  }
  param {
    lr_mult: 2
    decay_mult: 0
  }
  convolution_param {
    num_output: 384
    pad: 1
    kernel_size: 3
    weight_filler {
      type: "gaussian"
      std: 0.01
    }
    bias_filler {
      type: "constant"
      value: 0
    }
  }
}
layer {
  name: "relu3"
  type: "ReLU"
  bottom: "conv3"
  top: "conv3"
}
layer {
  name: "conv4"
  type: "Convolution"
  bottom: "conv3"
  top: "conv4"
  param {
    lr_mult: 1
    decay_mult: 1
  }
  param {
    lr_mult: 2
    decay_mult: 0
  }
  convolution_param {
    num_output: 384
    pad: 1
    kernel_size: 3
    group: 2
    weight_filler {
      type: "gaussian"
      std: 0.01
    }
    bias_filler {
      type: "constant"
      value: 1
    }
  }
}
layer {
  name: "relu4"
  type: "ReLU"
  bottom: "conv4"
  top: "conv4"
}
layer {
  name: "conv5"
  type: "Convolution"
  bottom: "conv4"
  top: "conv5"
  param {
    lr_mult: 1
    decay_mult: 1
  }
  param {
    lr_mult: 2
    decay_mult: 0
  }
  convolution_param {
    num_output: 256
    pad: 1
    kernel_size: 3
    group: 2
    weight_filler {
      type: "gaussian"
      std: 0.01
    }
    bias_filler {
      type: "constant"
      value: 1
    }
  }
}
layer {
  name: "relu5"
  type: "ReLU"
  bottom: "conv5"
  top: "conv5"
}
layer {
  name: "pool5"
  type: "Pooling"
  bottom: "conv5"
  top: "pool5"
  pooling_param {
    pool: MAX
    kernel_size: 3
    stride: 2
  }
}
layer {
  name: "fc6"
  type: "InnerProduct"
  bottom: "pool5"
  top: "fc6"
  param {
    lr_mult: 1
    decay_mult: 1
  }
  param {
    lr_mult: 2
    decay_mult: 0
  }
  inner_product_param {
    num_output: 4096
    weight_filler {
      type: "gaussian"
      std: 0.005
    }
    bias_filler {
      type: "constant"
      value: 1
    }
  }
}
layer {
  name: "relu6"
  type: "ReLU"
  bottom: "fc6"
  top: "fc6"
}
layer {
  name: "drop6"
  type: "Dropout"
  bottom: "fc6"
  top: "fc6"
  dropout_param {
    dropout_ratio: 0.5
  }
}
layer {
  name: "fc7"
  type: "InnerProduct"
  bottom: "fc6"
  top: "fc7"
  param {
    lr_mult: 1
    decay_mult: 1
  }
  param {
    lr_mult: 2
    decay_mult: 0
  }
  inner_product_param {
    num_output: 4096
    weight_filler {
      type: "gaussian"
      std: 0.005
    }
    bias_filler {
      type: "constant"
      value: 1
    }
  }
}
layer {
  name: "relu7"
  type: "ReLU"
  bottom: "fc7"
  top: "fc7"
}
layer {
  name: "drop7"
  type: "Dropout"
  bottom: "fc7"
  top: "fc7"
  dropout_param {
    dropout_ratio: 0.5
  }
}
layer {
  name: "fc8"
  type: "InnerProduct"
  bottom: "fc7"
  top: "fc8"
  param {
    lr_mult: 1
    decay_mult: 1
  }
  param {
    lr_mult: 2
    decay_mult: 0
  }
  inner_product_param {
    num_output: 2
    weight_filler {
      type: "gaussian"
      std: 0.01
    }
    bias_filler {
      type: "constant"
      value: 0
    }
  }
}
layer {
  name: "accuracy"
  type: "Accuracy"
  bottom: "fc8"
  bottom: "label"
  top: "accuracy"
  include {
    phase: TEST
  }
}
layer {
  name: "loss"
  type: "SoftmaxWithLoss"
  bottom: "fc8"
  bottom: "label"
  top: "loss"
}
I0418 00:05:59.513692  6378 layer_factory.hpp:76] Creating layer data
I0418 00:05:59.513797  6378 net.cpp:110] Creating Layer data
I0418 00:05:59.513808  6378 net.cpp:433] data -> data
I0418 00:05:59.513819  6378 net.cpp:433] data -> label
I0418 00:05:59.513829  6378 data_transformer.cpp:23] Loading mean file from: /home/ghanghas.s/deeplearning/input/mean.binaryproto
I0418 00:05:59.556288  6453 db_lmdb.cpp:22] Opened lmdb /home/ghanghas.s/deeplearning/input/validation_lmdb
I0418 00:05:59.564676  6378 data_layer.cpp:44] output data size: 50,3,227,227
I0418 00:05:59.639102  6378 net.cpp:155] Setting up data
I0418 00:05:59.639163  6378 net.cpp:163] Top shape: 50 3 227 227 (7729350)
I0418 00:05:59.639171  6378 net.cpp:163] Top shape: 50 (50)
I0418 00:05:59.639180  6378 layer_factory.hpp:76] Creating layer label_data_1_split
I0418 00:05:59.639209  6378 net.cpp:110] Creating Layer label_data_1_split
I0418 00:05:59.639226  6378 net.cpp:477] label_data_1_split <- label
I0418 00:05:59.639247  6378 net.cpp:433] label_data_1_split -> label_data_1_split_0
I0418 00:05:59.639271  6378 net.cpp:433] label_data_1_split -> label_data_1_split_1
I0418 00:05:59.639293  6378 net.cpp:155] Setting up label_data_1_split
I0418 00:05:59.639312  6378 net.cpp:163] Top shape: 50 (50)
I0418 00:05:59.639328  6378 net.cpp:163] Top shape: 50 (50)
I0418 00:05:59.639345  6378 layer_factory.hpp:76] Creating layer conv1
I0418 00:05:59.639402  6378 net.cpp:110] Creating Layer conv1
I0418 00:05:59.639416  6378 net.cpp:477] conv1 <- data
I0418 00:05:59.639433  6378 net.cpp:433] conv1 -> conv1
I0418 00:05:59.648651  6378 net.cpp:155] Setting up conv1
I0418 00:05:59.648684  6378 net.cpp:163] Top shape: 50 192 55 55 (29040000)
I0418 00:05:59.648711  6378 layer_factory.hpp:76] Creating layer relu1
I0418 00:05:59.648730  6378 net.cpp:110] Creating Layer relu1
I0418 00:05:59.648747  6378 net.cpp:477] relu1 <- conv1
I0418 00:05:59.648764  6378 net.cpp:419] relu1 -> conv1 (in-place)
I0418 00:05:59.649677  6378 net.cpp:155] Setting up relu1
I0418 00:05:59.649689  6378 net.cpp:163] Top shape: 50 192 55 55 (29040000)
I0418 00:05:59.649695  6378 layer_factory.hpp:76] Creating layer pool1
I0418 00:05:59.649708  6378 net.cpp:110] Creating Layer pool1
I0418 00:05:59.649713  6378 net.cpp:477] pool1 <- conv1
I0418 00:05:59.649721  6378 net.cpp:433] pool1 -> pool1
I0418 00:05:59.649859  6378 net.cpp:155] Setting up pool1
I0418 00:05:59.649870  6378 net.cpp:163] Top shape: 50 192 27 27 (6998400)
I0418 00:05:59.649874  6378 layer_factory.hpp:76] Creating layer norm1
I0418 00:05:59.649884  6378 net.cpp:110] Creating Layer norm1
I0418 00:05:59.649888  6378 net.cpp:477] norm1 <- pool1
I0418 00:05:59.649896  6378 net.cpp:433] norm1 -> norm1
I0418 00:05:59.650060  6378 net.cpp:155] Setting up norm1
I0418 00:05:59.650081  6378 net.cpp:163] Top shape: 50 192 27 27 (6998400)
I0418 00:05:59.650095  6378 layer_factory.hpp:76] Creating layer conv2
I0418 00:05:59.650198  6378 net.cpp:110] Creating Layer conv2
I0418 00:05:59.650207  6378 net.cpp:477] conv2 <- norm1
I0418 00:05:59.650218  6378 net.cpp:433] conv2 -> conv2
I0418 00:05:59.729778  6378 net.cpp:155] Setting up conv2
I0418 00:05:59.729825  6378 net.cpp:163] Top shape: 50 384 27 27 (13996800)
I0418 00:05:59.729845  6378 layer_factory.hpp:76] Creating layer relu2
I0418 00:05:59.729856  6378 net.cpp:110] Creating Layer relu2
I0418 00:05:59.729861  6378 net.cpp:477] relu2 <- conv2
I0418 00:05:59.729871  6378 net.cpp:419] relu2 -> conv2 (in-place)
I0418 00:05:59.730304  6378 net.cpp:155] Setting up relu2
I0418 00:05:59.730316  6378 net.cpp:163] Top shape: 50 384 27 27 (13996800)
I0418 00:05:59.730321  6378 layer_factory.hpp:76] Creating layer pool2
I0418 00:05:59.730334  6378 net.cpp:110] Creating Layer pool2
I0418 00:05:59.730339  6378 net.cpp:477] pool2 <- conv2
I0418 00:05:59.730347  6378 net.cpp:433] pool2 -> pool2
I0418 00:05:59.731016  6378 net.cpp:155] Setting up pool2
I0418 00:05:59.731034  6378 net.cpp:163] Top shape: 50 384 13 13 (3244800)
I0418 00:05:59.731040  6378 layer_factory.hpp:76] Creating layer norm2
I0418 00:05:59.731050  6378 net.cpp:110] Creating Layer norm2
I0418 00:05:59.731055  6378 net.cpp:477] norm2 <- pool2
I0418 00:05:59.731065  6378 net.cpp:433] norm2 -> norm2
I0418 00:05:59.731075  6378 net.cpp:155] Setting up norm2
I0418 00:05:59.731081  6378 net.cpp:163] Top shape: 50 384 13 13 (3244800)
I0418 00:05:59.731086  6378 layer_factory.hpp:76] Creating layer conv3
I0418 00:05:59.731096  6378 net.cpp:110] Creating Layer conv3
I0418 00:05:59.731101  6378 net.cpp:477] conv3 <- norm2
I0418 00:05:59.731109  6378 net.cpp:433] conv3 -> conv3
I0418 00:05:59.788638  6378 net.cpp:155] Setting up conv3
I0418 00:05:59.788655  6378 net.cpp:163] Top shape: 50 384 13 13 (3244800)
I0418 00:05:59.788669  6378 layer_factory.hpp:76] Creating layer relu3
I0418 00:05:59.788679  6378 net.cpp:110] Creating Layer relu3
I0418 00:05:59.788684  6378 net.cpp:477] relu3 <- conv3
I0418 00:05:59.788693  6378 net.cpp:419] relu3 -> conv3 (in-place)
I0418 00:05:59.788825  6378 net.cpp:155] Setting up relu3
I0418 00:05:59.788836  6378 net.cpp:163] Top shape: 50 384 13 13 (3244800)
I0418 00:05:59.788841  6378 layer_factory.hpp:76] Creating layer conv4
I0418 00:05:59.788852  6378 net.cpp:110] Creating Layer conv4
I0418 00:05:59.788857  6378 net.cpp:477] conv4 <- conv3
I0418 00:05:59.788866  6378 net.cpp:433] conv4 -> conv4
I0418 00:05:59.814767  6378 net.cpp:155] Setting up conv4
I0418 00:05:59.814803  6378 net.cpp:163] Top shape: 50 384 13 13 (3244800)
I0418 00:05:59.814815  6378 layer_factory.hpp:76] Creating layer relu4
I0418 00:05:59.814822  6378 net.cpp:110] Creating Layer relu4
I0418 00:05:59.814827  6378 net.cpp:477] relu4 <- conv4
I0418 00:05:59.814836  6378 net.cpp:419] relu4 -> conv4 (in-place)
I0418 00:05:59.814967  6378 net.cpp:155] Setting up relu4
I0418 00:05:59.814981  6378 net.cpp:163] Top shape: 50 384 13 13 (3244800)
I0418 00:05:59.814998  6378 layer_factory.hpp:76] Creating layer conv5
I0418 00:05:59.815019  6378 net.cpp:110] Creating Layer conv5
I0418 00:05:59.815039  6378 net.cpp:477] conv5 <- conv4
I0418 00:05:59.815062  6378 net.cpp:433] conv5 -> conv5
I0418 00:05:59.832728  6378 net.cpp:155] Setting up conv5
I0418 00:05:59.832741  6378 net.cpp:163] Top shape: 50 256 13 13 (2163200)
I0418 00:05:59.832756  6378 layer_factory.hpp:76] Creating layer relu5
I0418 00:05:59.832763  6378 net.cpp:110] Creating Layer relu5
I0418 00:05:59.832769  6378 net.cpp:477] relu5 <- conv5
I0418 00:05:59.832777  6378 net.cpp:419] relu5 -> conv5 (in-place)
I0418 00:05:59.833021  6378 net.cpp:155] Setting up relu5
I0418 00:05:59.833032  6378 net.cpp:163] Top shape: 50 256 13 13 (2163200)
I0418 00:05:59.833039  6378 layer_factory.hpp:76] Creating layer pool5
I0418 00:05:59.833050  6378 net.cpp:110] Creating Layer pool5
I0418 00:05:59.833055  6378 net.cpp:477] pool5 <- conv5
I0418 00:05:59.833063  6378 net.cpp:433] pool5 -> pool5
I0418 00:05:59.833209  6378 net.cpp:155] Setting up pool5
I0418 00:05:59.833220  6378 net.cpp:163] Top shape: 50 256 6 6 (460800)
I0418 00:05:59.833225  6378 layer_factory.hpp:76] Creating layer fc6
I0418 00:05:59.833235  6378 net.cpp:110] Creating Layer fc6
I0418 00:05:59.833240  6378 net.cpp:477] fc6 <- pool5
I0418 00:05:59.833250  6378 net.cpp:433] fc6 -> fc6
I0418 00:06:01.221266  6378 net.cpp:155] Setting up fc6
I0418 00:06:01.221297  6378 net.cpp:163] Top shape: 50 4096 (204800)
I0418 00:06:01.221310  6378 layer_factory.hpp:76] Creating layer relu6
I0418 00:06:01.221323  6378 net.cpp:110] Creating Layer relu6
I0418 00:06:01.221330  6378 net.cpp:477] relu6 <- fc6
I0418 00:06:01.221341  6378 net.cpp:419] relu6 -> fc6 (in-place)
I0418 00:06:01.221735  6378 net.cpp:155] Setting up relu6
I0418 00:06:01.221746  6378 net.cpp:163] Top shape: 50 4096 (204800)
I0418 00:06:01.221751  6378 layer_factory.hpp:76] Creating layer drop6
I0418 00:06:01.221762  6378 net.cpp:110] Creating Layer drop6
I0418 00:06:01.221766  6378 net.cpp:477] drop6 <- fc6
I0418 00:06:01.221776  6378 net.cpp:419] drop6 -> fc6 (in-place)
I0418 00:06:01.221786  6378 net.cpp:155] Setting up drop6
I0418 00:06:01.221791  6378 net.cpp:163] Top shape: 50 4096 (204800)
I0418 00:06:01.221796  6378 layer_factory.hpp:76] Creating layer fc7
I0418 00:06:01.221807  6378 net.cpp:110] Creating Layer fc7
I0418 00:06:01.221812  6378 net.cpp:477] fc7 <- fc6
I0418 00:06:01.221819  6378 net.cpp:433] fc7 -> fc7
I0418 00:06:01.838167  6378 net.cpp:155] Setting up fc7
I0418 00:06:01.838197  6378 net.cpp:163] Top shape: 50 4096 (204800)
I0418 00:06:01.838212  6378 layer_factory.hpp:76] Creating layer relu7
I0418 00:06:01.838224  6378 net.cpp:110] Creating Layer relu7
I0418 00:06:01.838232  6378 net.cpp:477] relu7 <- fc7
I0418 00:06:01.838243  6378 net.cpp:419] relu7 -> fc7 (in-place)
I0418 00:06:01.838454  6378 net.cpp:155] Setting up relu7
I0418 00:06:01.838465  6378 net.cpp:163] Top shape: 50 4096 (204800)
I0418 00:06:01.838470  6378 layer_factory.hpp:76] Creating layer drop7
I0418 00:06:01.838480  6378 net.cpp:110] Creating Layer drop7
I0418 00:06:01.838485  6378 net.cpp:477] drop7 <- fc7
I0418 00:06:01.838492  6378 net.cpp:419] drop7 -> fc7 (in-place)
I0418 00:06:01.838503  6378 net.cpp:155] Setting up drop7
I0418 00:06:01.838508  6378 net.cpp:163] Top shape: 50 4096 (204800)
I0418 00:06:01.838513  6378 layer_factory.hpp:76] Creating layer fc8
I0418 00:06:01.838524  6378 net.cpp:110] Creating Layer fc8
I0418 00:06:01.838528  6378 net.cpp:477] fc8 <- fc7
I0418 00:06:01.838536  6378 net.cpp:433] fc8 -> fc8
I0418 00:06:01.838894  6378 net.cpp:155] Setting up fc8
I0418 00:06:01.838929  6378 net.cpp:163] Top shape: 50 2 (100)
I0418 00:06:01.838939  6378 layer_factory.hpp:76] Creating layer fc8_fc8_0_split
I0418 00:06:01.838948  6378 net.cpp:110] Creating Layer fc8_fc8_0_split
I0418 00:06:01.838951  6378 net.cpp:477] fc8_fc8_0_split <- fc8
I0418 00:06:01.838960  6378 net.cpp:433] fc8_fc8_0_split -> fc8_fc8_0_split_0
I0418 00:06:01.838968  6378 net.cpp:433] fc8_fc8_0_split -> fc8_fc8_0_split_1
I0418 00:06:01.838984  6378 net.cpp:155] Setting up fc8_fc8_0_split
I0418 00:06:01.839002  6378 net.cpp:163] Top shape: 50 2 (100)
I0418 00:06:01.839015  6378 net.cpp:163] Top shape: 50 2 (100)
I0418 00:06:01.839025  6378 layer_factory.hpp:76] Creating layer accuracy
I0418 00:06:01.839056  6378 net.cpp:110] Creating Layer accuracy
I0418 00:06:01.839069  6378 net.cpp:477] accuracy <- fc8_fc8_0_split_0
I0418 00:06:01.839087  6378 net.cpp:477] accuracy <- label_data_1_split_0
I0418 00:06:01.839108  6378 net.cpp:433] accuracy -> accuracy
I0418 00:06:01.839135  6378 net.cpp:155] Setting up accuracy
…
